checkpoints/best_model.onnx (onnx, 530581 bytes, 6 tensors)

conv1.weight f4 [8, 3, 5, 5]
0	0x3dbac882	0.09120275
1	0x3d9e0abd	0.07716892
2	0xbe724bc6	-0.23661718
3	0xbee5f3a4	-0.44912446
4	0xbe91a0d2	-0.2844301
5	0x3e7e4dd4	0.24834377
6	0xbc1fc397	-0.009751222
7	0xbda5229b	-0.08063241
8	0xbcf94244	-0.030427106
9	0xbe3577db	-0.17721502
10	0x3cdeb1c4	0.027184375
11	0x3c43306f	0.011913403
12	0x3d2318a9	0.03981844
13	0x3c4d7edd	0.012542454
14	0xbdb687df	-0.08912634
15	0x3e5bf268	0.2147919
16	0x3e420da7	0.1895052
17	0x3e4c7957	0.19968162
18	0x3ecbe48c	0.39822805
19	0x3e7be439	0.24598779
20	0xbe94524a	-0.28969032
21	0xbdde2576	-0.10846989
22	0x3ddb340b	0.10703286
23	0x3d1d8e3d	0.038465727
24	0x3d8f843c	0.070076436
25	0x3d206a51	0.03916389
26	0x3e497612	0.19673946
27	0xbd2f1325	-0.042742867
28	0xbe938b73	-0.2881733
29	0x3e549d4c	0.20763129
30	0xbd92fe4e	-0.07177411
31	0xbe7d87c2	-0.24758819
32	0xbe9b7e60	-0.30369854
33	0xbe91a004	-0.28442395
34	0xbd260b46	-0.040538095
35	0x3d913d99	0.07091827
36	0x3dd34e6b	0.103176914
37	0xbc4147ea	-0.011796931
38	0x3b220409	0.0024721643
39	0x3e6ff442	0.2343302
40	0x3dd1f9a8	0.10252696
41	0xbe161b7b	-0.1465892
42	0xbe979ba5	-0.29610935
43	0x3ca84e76	0.020545226
44	0x3e5b5161	0.21417762
45	0x3c0adef1	0.008476005
46	0x3deb18d7	0.11479347
47	0x3e0c1329	0.13679184
48	0xbdb8cea8	-0.090237916
49	0x3e7e5483	0.24836926
50	0xbf0a893c	-0.54115653
51	0xbe8ba834	-0.27276766
52	0x3e4dedef	0.20110296
53	0x3ebf0d80	0.37314987
54	0x3f9d0752	1.2267859
55	0xbd55c682	-0.052191265
56	0xbd2b8fdb	-0.04188524
57	0x3e584f81	0.21124078
58	0x3ea1b2b3	0.3158165
59	0x3efe4534	0.49662173
60	0xbec5966f	-0.38591334
61	0xbe76831c	-0.24073452
62	0x3db8cbce	0.09023248
63	0x3b9c8f8b	0.004777854
64	0x3e3b4c6b	0.1829087
65	0xbebbf974	-0.36713755
66	0xbe3717df	-0.178802
67	0xbe9ccd27	-0.3062527
68	0xbe0555b6	-0.13020977
69	0xbe63a44a	-0.2223064
70	0xbed3ff48	-0.41405702
71	0xbe23c186	-0.15991792
72	0x3e4dfd15	0.20116074
73	0xbbef1feb	-0.007297506
74	0x3e226563	0.15858988
75	0xbc91f9c2	-0.01781929
76	0xbdcaff8e	-0.099120244
77	0x3f20d460	0.6282406
78	0x3ee5e350	0.44899988
79	0xbde95cf9	-0.11394686
80	0x3e9745be	0.29545397
81	0x3e59b2b7	0.2125958
82	0x3f8dd9f7	1.1082143
83	0x3f7848df	0.9698619
84	0x3f079346	0.52959096
85	0xbed97938	-0.42475295
86	0xbef82fe9	-0.48474053
87	0xbe22f991	-0.15915515
88	0xbdf8c8cb	-0.12147673
89	0xbea24d80	-0.31699753
90	0xbdcba39e	-0.09943317
91	0xbe862e3b	-0.26207146
92	0xbe0f3df4	-0.13988477
93	0x3b06775e	0.0020517926
94	0xbdabffa3	-0.08398368
95	0xbe84a4ce	-0.25906986
96	0xbe81a1a6	-0.2531864
97	0xbeea95e0	-0.4581747
98	0xbe6c0e47	-0.23052321
99	0xbe88942b	-0.26675543
100	0xbea518d4	-0.32245505
101	0x3e35556f	0.17708372
102	0xbe52563c	-0.20540708
103	0xbf437905	-0.76356536
104	0xbf0e0d68	-0.55489206
105	0xbe4400d9	-0.19140948
106	0x3db2f8fc	0.08738896
107	0xbe98bbf1	-0.29830888
108	0xbf6ab595	-0.9168332
109	0xbf196bf1	-0.5993033
110	0x3ec2bb30	0.38033438
111	0x3f3bdf38	0.7338748
112	0x3f0ec7eb	0.557738
113	0xbe49f5ac	-0.19722623
114	0xbe1b70df	-0.15179776
115	0x3e85e49d	0.2615098
116	0x3f1e554f	0.6184892
117	0x3ebdd915	0.37079683
118	0xbd9b4e4b	-0.075832926
119	0x3cf51978	0.029919371
120	0x3e82525b	0.25453457
121	0x3eddf911	0.43354085
122	0x3e98029f	0.296895
123	0xbdf218f6	-0.11821167
124	0xbc65089b	-0.0139791025
125	0x3e7ac3b8	0.24488723
126	0xbcb4141c	-0.021982245
127	0xbf1e1a06	-0.6175846
128	0x3eb8597b	0.36005768
129	0x3f1a94c4	0.6038325
130	0x3c5a0198	0.013306044
131	0xbed1f61a	-0.41008073
132	0xbf898a24	-1.0745282
133	0xbe185e6d	-0.1487977
134	0x3e3af301	0.18256761
135	0xbd69e65b	-0.05710445
136	0xbe9985b7	-0.2998483
137	0xbeddcffc	-0.43322742
138	0x3eb8abc5	0.3606855
139	0x3ecfc714	0.40581572
140	0xbe84e4f4	-0.25955927
141	0xbec657d6	-0.38738889
142	0xbe7148c8	-0.2356292
143	0x3e0cfc7e	0.13768193
144	0x3e236707	0.1595727
145	0xbca49224	-0.020089217
146	0xbc653e61	-0.013991923
147	0x3d097eab	0.033568066
148	0x3eb18481	0.34671405
149	0x3deabcd7	0.114617996
150	0x3ea31840	0.3185444
151	0xbec06eb3	-0.37584457
152	0x3f0fa831	0.56116015
153	0xbf013590	-0.50472355
154	0x3c8caaeb	0.017171344
155	0x3dd2240e	0.10260783
156	0xbe6eb6a6	-0.23311862
157	0xbe8badf8	-0.27281165
158	0x3ee55e54	0.4479853
159	0xbf050a22	-0.51968586
160	0x3e0d8e67	0.13823853
161	0x3f6962e5	0.91166526
162	0xbf9d3330	-1.2281246
163	0x3d4f8dc4	0.050672308
164	0x3e48a0ab	0.1959254
165	0xbeb08a1e	-0.34480375
166	0x3e146d72	0.14494875
167	0x3f4c914b	0.799092
168	0xbeb85f0b	-0.36010012
169	0xbead00c7	-0.33789656
170	0x3e6511de	0.22370097
171	0xbee88b55	-0.45418802
172	0x3ec9a79f	0.39385697
173	0x3dd06f5a	0.101774886
174	0x3e387326	0.18012676
175	0xbe0a0fe8	-0.1348263
176	0xbedee3d4	-0.43533194
177	0x3f28ea7c	0.65982795
178	0xbe2def1c	-0.16985744
179	0x3ed424db	0.41434368
180	0xbd2b7a14	-0.04186447
181	0xbe078d8f	-0.13237594
182	0xbd9391a7	-0.07205515
183	0x3f342094	0.7036221
184	0x3e137575	0.14400275
185	0xbe5ee549	-0.21767153
186	0x3f5cb1d2	0.8620883
187	0xbf864d69	-1.0492374
188	0x3ebcc8f7	0.36872074
189	0x3f16ea5b	0.5895135
190	0xbf116637	-0.5679659
191	0x3cf81ed7	0.030288143
192	0x3f48b717	0.7840437
193	0xbe201613	-0.1563342
194	0x3d2cfef4	0.04223533
195	0xbdfaa095	-0.1223766
196	0xbf493984	-0.78603387
197	0xbe12e527	-0.14345227
198	0xbe8e1d67	-0.27756807
199	0x3dd42cdd	0.103601195
200	0x3e2734ef	0.16328786
201	0xbeb64cac	-0.3560537
202	0x3e930a7e	0.28718942
203	0xbeebc4d4	-0.46048605
204	0xbcc635e3	-0.024195617
205	0x3e8ee194	0.27906477
206	0xbda5be01	-0.08092881
207	0xbeb75c9e	-0.3581285
208	0x3ea946a6	0.33061713
209	0xbecb25dd	-0.39677325
210	0x3bb370ca	0.005476092
211	0x3f4a165c	0.7894037
212	0xbfa17cef	-1.2616252
213	0xbce325b1	-0.027727934
214	0xbda75489	-0.08170421
215	0xbdfa91f4	-0.122348696
216	0x3e3cd38e	0.18440077
217	0x3f1083f3	0.5645134
218	0xbe8c7e6f	-0.2744021
219	0xbee806e7	-0.45317766
220	0x3ee11771	0.43963197
221	0xbdade9d7	-0.08491867
222	0x3eb8f8f6	0.36127442
223	0x3dffa43e	0.124824986
224	0x3d2f8836	0.04285451
225	0xbe53d0fe	-0.20685193
226	0xbe2db3aa	-0.16963068
227	0x3e243342	0.16035178
228	0x3e778974	0.24173528
229	0x3e52b4e5	0.20576818
230	0xbea2b027	-0.3177502
231	0x3e1786bf	0.14797495
232	0x3e8d7e4d	0.27635422
233	0xbd577385	-0.052600402
234	0x3c9c668c	0.019091867
235	0xbd2b5ba4	-0.041835442
236	0x3f557838	0.83386564
237	0xbee5c79d	-0.44878855
238	0xbe43b97c	-0.19113725
239	0xbe10f163	-0.14154582
240	0x3f4fc6c6	0.8116268
241	0xbf12e837	-0.5738558
242	0xbf106187	-0.56398815
243	0x3e4e7f4a	0.20165744
244	0xbc9bd298	-0.019021317
245	0xbe49c02d	-0.19702215
246	0xbeb5d165	-0.35511318
247	0x3f010db5	0.5041154
248	0xbd9cd24a	-0.07657297
249	0x3cfc917f	0.030831097
250	0xbcc50a32	-0.024052713
251	0x3d5882fd	0.052859295
252	0x3d9954e9	0.074868985
253	0xbe112bbe	-0.14176843
254	0xbe9d2f0a	-0.3069995
255	0xbe636e85	-0.22210129

conv1.bias f4 [8]
0	0xbf3d7eb6	-0.7402147
1	0xbff1eba2	-1.8900034
2	0xbde8f63e	-0.11375092
3	0xbeb095d1	-0.344893
4	0xbd883f4c	-0.06652698
5	0x3e885915	0.26630464
6	0xbf49367d	-0.7859877
7	0xbf75299b	-0.9576661

fc1.weight f4 [64, 2048]
0	0xac7f22b1	-3.6256937e-12
1	0xb594556c	-1.105172e-06
2	0xb20707e1	-7.859826e-09
3	0x80000517	-1.826e-42
4	0x800089f2	-4.9485e-41
5	0x03aa854a	1.0022304e-36
6	0x1420bd75	8.1152995e-27
7	0x00006436	3.5949e-41
8	0x0007841f	6.90245e-40
9	0x01367cd0	3.351767e-38
10	0x9e969d2c	-1.5946873e-20
11	0x9c29b605	-5.6152664e-22
12	0x943d92ce	-9.571014e-27
13	0x059b4a57	1.4603438e-35
14	0x8003633c	-3.11105e-40
15	0xb4c0b83b	-3.5896832e-07
16	0xb5868a8a	-1.0024098e-06
17	0xb88a845f	-6.605009e-05
18	0xb661a6d1	-3.3624713e-06
19	0x9caf3f56	-1.1596901e-21
20	0x92332f47	-5.6540715e-28
21	0x229aefd4	4.199571e-18
22	0x20d8e18b	3.6741075e-19
23	0x98535df5	-2.7318547e-24
24	0xa1762c82	-8.340695e-19
25	0x124b48d1	6.414526e-28
26	0x22182650	2.0620124e-18
27	0x281e46fa	8.7861525e-15
28	0x293c7ae2	4.185097e-14
29	0xa372c95c	-1.3161486e-17
30	0x972c49f5	-5.5669544e-25
31	0xb5381fd6	-6.859167e-07
32	0xb7993148	-1.826197e-05
33	0xb98c637e	-0.00026777008
34	0xb6a235fb	-4.8342604e-06
35	0xa80ccb6b	-7.81567e-15
36	0xa2a71544	-4.5287957e-18
37	0x285b6ee6	1.2180989e-14
38	0x295efdd6	4.951407e-14
39	0xa454cfaa	-4.614607e-17
40	0xa236618f	-2.4717247e-18
41	0xa31b22b1	-8.409913e-18
42	0xad1399cb	-8.3901315e-12
43	0x2c04e22b	1.8883877e-12
44	0x2bb53bef	1.2877458e-12
45	0xa6166bc3	-5.218775e-16
46	0xa8ff0e92	-2.8317006e-14
47	0xb40363b4	-1.2236598e-07
48	0xb8502f60	-4.9635186e-05
49	0xb9dbd6bd	-0.00041930928
50	0xb8091324	-3.268117e-05
51	0xaafdabc7	-4.5061023e-13
52	0x2dbdcd25	2.1577915e-11
53	0x269c6a96	1.0853565e-15
54	0x2331f376	9.646744e-18
55	0xa7428f91	-2.7000736e-15
56	0xabeecaa3	-1.696716e-12
57	0xaa04462b	-1.17483e-13
58	0xa8bf704d	-2.1253962e-14
59	0x288461d3	1.4697368e-14
60	0x2ed0344e	9.468036e-11
61	0xa164a798	-7.7471213e-19
62	0xacc43652	-5.576686e-12
63	0xb2dcf9c6	-2.5724955e-08
64	0xb89c8338	-7.463101e-05
65	0xb9bbb236	-0.00035800197
66	0xb76b2438	-1.4015524e-05
67	0x2d2ae06e	9.713215e-12
68	0x2d9f5792	1.8115096e-11
69	0x258624fa	2.327035e-16
70	0x226b2872	3.186985e-18
71	0x263e1cc0	6.5958456e-16
72	0xac33d67b	-2.555649e-12
73	0xaa5534ab	-1.8936473e-13
74	0xad9ab4e3	-1.7588103e-11
75	0xaef5de32	-1.118078e-10
76	0xafb96491	-3.372276e-10
77	0xa8e3fa0b	-2.5310502e-14
78	0x2757e568	2.9961605e-15
79	0xb1dad81a	-6.369203e-09
80	0xb840b439	-4.5944213e-05
81	0xb90d083f	-0.0001344988
82	0xb7833020	-1.5638827e-05
83	0x2e44f26f	4.4780565e-11
84	0x2e0280c7	2.9672955e-11
85	0xadcc01b0	-2.3192864e-11
86	0x2b9d12ed	1.1160774e-12
87	0x280d1556	7.831699e-15
88	0xaa1f6634	-1.4157496e-13
89	0xa93cd1b9	-4.192629e-14
90	0xae4ab7f9	-4.6092883e-11
91	0xb0906e6a	-1.050876e-09
92	0xb0cd91e0	-1.4957173e-09
93	0xad79f515	-1.42084304e-11
94	0x2a723ec1	2.151569e-13
95	0xb2519d4b	-1.2201165e-08
96	0xb7a4fa6b	-1.9666933e-05
97	0xb8fb69e8	-0.00011988339
98	0xb7db3ca8	-2.613508e-05
99	0xb141f031	-2.822173e-09
100	0x2f0064c6	1.1677334e-10
101	0xb3a369a5	-7.6094956e-08
102	0x2a8a13d4	2.4527483e-13
103	0x2dd4d945	2.4198097e-11
104	0xa9f711ce	-1.0972092e-13
105	0xaddca35f	-2.5083656e-11
106	0xb1c24421	-5.6538885e-09
107	0xb0179c9a	-5.5156024e-10
108	0xaff54cdb	-4.461985e-10
109	0x2bd18b4b	1.4889005e-12
110	0x2c1cad7f	2.2265243e-12
111	0xb2bb9ec9	-2.1841872e-08
112	0xb6be4da1	-5.6714784e-06
113	0xb93eed25	-0.00018208155
114	0xb7e81ac9	-2.7669028e-05
115	0xb0ca24d2	-1.4707899e-09
116	0xb1b9ab4e	-5.4036837e-09
117	0xb5605270	-8.3566465e-07
118	0x2b4d58b5	7.2953736e-13
119	0x2e630c83	5.1624937e-11
120	0xaf1d643e	-1.431468e-10
121	0xb02d4fda	-6.305051e-10
122	0xb023e027	-5.9617594e-10
123	0xb185c930	-3.893682e-09
124	0xb126265b	-2.4177982e-09
125	0x29d86ec7	9.611544e-14
126	0xad3c7295	-1.0712005e-11
127	0xb14f8abe	-3.020133e-09
128	0xb70ee8b8	-8.518044e-06
129	0xb991386d	-0.00027698596
130	0xb7942ee8	-1.7664817e-05
131	0xad433d8f	-1.1098135e-11
132	0xb4069f73	-1.253773e-07
133	0xb4564cba	-1.9958216e-07
134	0xae87d3ba	-6.1766994e-11
135	0xafe73de5	-4.2062634e-10
136	0xb12c8676	-2.5105726e-09
137	0xb30bf8eb	-3.258985e-08
138	0xb0ca3655	-1.4712876e-09
139	0xb11211e0	-2.1255957e-09
140	0xb25f1e84	-1.2987247e-08
141	0xaf6db738	-2.1620117e-10
142	0xb0a40f3a	-1.1936898e-09
143	0xb20c1ecd	-8.156076e-09
144	0xb6dcb692	-6.577765e-06
145	0xb9d68957	-0.00040919587
146	0xb8130022	-3.5047655e-05
147	0xad1b28b3	-8.819767e-12
148	0xb43deb8d	-1.768769e-07
149	0xb461114e	-2.0961053e-07
150	0xaaea176b	-4.1583e-13
151	0xad029bbe	-7.424226e-12
152	0xae8b06f1	-6.322221e-11
153	0xa92894c2	-3.743252e-14
154	0xa6f1fa34	-1.6790552e-15
155	0xaae80e3d	-4.1221358e-13
156	0xb11cfd25	-2.2844884e-09
157	0xb1ec29de	-6.8732637e-09
158	0xb052ae4c	-7.6645246e-10
159	0xb1d64fc1	-6.2372867e-09
160	0xb64d22e1	-3.0567683e-06
161	0xb9dde307	-0.00042321553
162	0xb837457d	-4.3695316e-05
163	0xaf2292f6	-1.4786025e-10
164	0xb228c751	-9.824206e-09
165	0xb1f80192	-7.2179285e-09
166	0x22f32080	6.5899693e-18
167	0xaab75b32	-3.257061e-13
168	0x2faf3b22	3.187433e-10
169	0x2a3c4266	1.6720791e-13
170	0x28643782	1.2668579e-14
171	0x2605f2bd	4.6472616e-16
172	0xad67608c	-1.31522675e-11
173	0xb187fc90	-3.95773e-09
174	0xac1e93a2	-2.2535103e-12
175	0xaffcadbe	-4.5961984e-10
176	0xb443f5c7	-1.8250203e-07
177	0xb9694af5	-0.00022248535
178	0xb7c3036e	-2.3247409e-05
179	0xad08a8ac	-7.768158e-12
180	0xb3703e77	-5.5936166e-08
181	0xb323bc73	-3.812279e-08
182	0xabbf3058	-1.3584784e-12
183	0xac007868	-1.8256733e-12
184	0x2bb371dd	1.2750318e-12
185	0x2b9e7619	1.1259354e-12
186	0x27c1a65d	5.3748632e-15
187	0x2655a702	7.412556e-16
188	0xadd221ad	-2.3889191e-11
189	0xafe6950e	-4.1942666e-10
190	0xa1b6033a	-1.2333654e-18
191	0xb3c7c855	-9.3031e-08
192	0xb43e29de	-1.771036e-07
193	0xb92cc1e0	-0.00016475422
194	0xb7847117	-1.5788288e-05
195	0xac28c442	-2.398318e-12
196	0xb2007d12	-7.479018e-09
197	0xb2e2385c	-2.6335492e-08
198	0xab90deae	-1.0293621e-12
199	0xac9c4da1	-4.442405e-12
200	0xac023771	-1.8504887e-12
201	0x2412c085	3.1821774e-17
202	0x18493b16	2.6008472e-24
203	0x27f5e502	6.824945e-15
204	0x244edb29	4.4854765e-17
205	0xa6e7aad3	-1.6075147e-15
206	0x98fdaa58	-6.557097e-24
207	0xb50d021e	-5.2529674e-07
208	0xb3a3ffb1	-7.636789e-08
209	0xb8f21911	-0.00011544128
210	0xb6a27ab3	-4.8422603e-06
211	0xad6a6f0f	-1.332602e-11
212	0xb196153e	-4.3679895e-09
213	0xa71a00cc	-2.1372225e-15
214	0x994d2102	-1.06049175e-23
215	0xa6add456	-1.206184e-15
216	0xaaf1cdbf	-4.2952965e-13
217	0xa3b31e90	-1.9420163e-17
218	0x25a47040	2.8525529e-16
219	0x282a9b5d	9.470585e-15
220	0xa1d8e4e7	-1.4697319e-18
221	0x275f410f	3.0982735e-15
222	0x23e36f14	2.4658433e-17
223	0xb517d361	-5.655948e-07
224	0xb3efebbd	-1.1172185e-07
225	0xb8cb31cc	-9.68907e-05
226	0xb60c8b83	-2.0942832e-06
227	0xabac63f0	-1.2249073e-12
228	0xab25dd1a	-5.8926616e-13
229	0x9e2e318e	-9.221731e-21
230	0x9638a189	-1.4914373e-25
231	0x94d376d5	-2.1352426e-26
232	0xa1c100bd	-1.3078384e-18
233	0x9d48299d	-2.6491293e-21
234	0xa533b597	-1.55873e-16
235	0xa9518af5	-4.652785e-14
236	0x9c0ed4cf	-4.7258907e-22
237	0x2494d3e5	6.454373e-17
238	0x1f1daa18	3.338674e-20
239	0xb50864e5	-5.081077e-07
240	0xb246a2d7	-1.1562142e-08
241	0xb735f044	-1.0844382e-05
242	0xb4000db8	-1.192592e-07
243	0xa57755b7	-2.1452876e-16
244	0xa2d2a658	-5.7096737e-18
245	0x9fa723d5	-7.078653e-20
246	0x978ad009	-8.970556e-25
247	0x8f8efd05	-1.409974e-29
248	0x969ede1b	-2.5666445e-25
249	0xa2c70d3a	-5.3953062e-18
250	0xa726a2a4	-2.3125295e-15
251	0xaa51404f	-1.858524e-13
252	0xa1000fef	-4.3389175e-19
253	0x9985f5be	-1.3851132e-23
254	0x98968581	-3.8908896e-24
255	0xb3a325df	-7.597168e-08

fc1.bias f4 [64]
0	0xae448ac7	-4.46885e-11
1	0xbc366634	-0.011132766
2	0xbbddb303	-0.0067657246
3	0x09f3a710	5.8657227e-33
4	0xaedba8ec	-9.9889735e-11
5	0x3f8867ba	1.0656655
6	0x800096f7	-5.4156e-41
7	0xa147a3dc	-6.764069e-19
8	0xacf10bc8	-6.85094e-12
9	0xb74306f1	-1.1624522e-05
10	0x3fb08e56	1.3793437
11	0xbbf3da7f	-0.0074418182
12	0x00008981	4.9327e-41
13	0x3d142abb	0.036173563
14	0xa019f249	-1.303977e-19
15	0xbee268d9	-0.44220617
16	0xbc9b47b1	-0.018955084
17	0x800088da	-4.9093e-41
18	0xbab848eb	-0.0014059817
19	0xa0b032b2	-2.9849107e-19
20	0x3fdd4615	1.7287012
21	0x99988b29	-1.5772638e-23
22	0xb0768645	-8.9685087e-10
23	0x0000896b	4.9296e-41
24	0xb005e3ee	-4.8709026e-10
25	0x0044d10f	6.31981e-39
26	0xaded054a	-2.694613e-11
27	0x000089ea	4.9474e-41
28	0x3e8b25e7	0.27177355
29	0xbf84c9b5	-1.0374056
30	0x3dbe68e7	0.09297352
31	0xb9a1c18e	-0.00030852522
32	0xbb4e7e47	-0.0031508373
33	0xbb7359f1	-0.0037132467
34	0x800089af	-4.9392e-41
35	0x8000891c	-4.9186e-41
36	0xb08d66e8	-1.0288348e-09
37	0xa84d2451	-1.1387661e-14
38	0x9aea21a3	-9.6834475e-23
39	0xad12f355	-8.35317e-12
40	0x00008940	4.9236e-41
41	0xb4c3eb82	-3.6492935e-07
42	0x800088c7	-4.9066e-41
43	0xb207de64	-7.9086e-09
44	0xbb8d7b79	-0.0043176976
45	0x000089a5	4.9378e-41
46	0xb884a5c5	-6.3251275e-05
47	0xb55c57c3	-8.2084097e-07
48	0x000088f9	4.9137e-41
49	0xae99f4c3	-7.001113e-11
50	0x8bd899b5	-8.3431446e-32
51	0xb4183f70	-1.4179182e-07
52	0x000088c2	4.906e-41
53	0xb6294a54	-2.5226227e-06
54	0xadafc26a	-1.9981534e-11
55	0xbc48fed2	-0.012267785
56	0xb213702c	-8.582031e-09
57	0xb657dc98	-3.21659e-06
58	0xad9b9d4a	-1.769131e-11
59	0x00008983	4.933e-41
60	0x000089e2	4.9463e-41
61	0xb69eec8d	-4.736305e-06
62	0x0018870a	2.252495e-39
63	0xa8909325	-1.6051025e-14

fc2.weight f4 [10, 64]
0	0x3bd6dd53	0.0065571456
1	0x3b4fbce7	0.0031698288
2	0x3cdf1ca9	0.027235346
3	0xb03b588f	-6.8156053e-10
4	0xbcdd0f2d	-0.026984775
5	0x3d008ae2	0.03138245
6	0x3b87fe3a	0.004150179
7	0x3ba4a57e	0.005024611
8	0xbb552c27	-0.0032527538
9	0xbc6adb1b	-0.014334465
10	0x3b617a97	0.0034405345
11	0xb8e83fdf	-0.00011074519
12	0x00008944	4.9242e-41
13	0x3d3a407a	0.045471646
14	0x3c7ebf17	0.015548489
15	0x3cd91ccd	0.026502991
16	0x3c2329cd	0.009958697
17	0x3c9fffdf	0.019531189
18	0x3bd79203	0.0065786853
19	0xbc96436a	-0.018342692
20	0x3e1b0541	0.15138723
21	0x3bb104d5	0.0054021874
22	0x3c140ed8	0.009036742
23	0xbc9b2bf6	-0.01894186
24	0x3aa37692	0.001247125
25	0xb33ba839	-4.3692328e-08
26	0x3adc97b8	0.0016829884
27	0x800088bd	-4.9052e-41
28	0xbcde09db	-0.027104309
29	0x3c91292d	0.01771983
30	0x3d28c55c	0.04120384
31	0xbc52a7e5	-0.012857412
32	0x3c1f5dbc	0.009726938
33	0xbb7e4ba4	-0.003880241
34	0x800089cc	-4.9432e-41
35	0x80008958	-4.927e-41
36	0xbb712cf5	-0.0036800478
37	0xbb87b5ea	-0.004141559
38	0x3c499ac6	0.012304967
39	0x38efb9c5	0.0001143101
40	0x3bb1990a	0.005419855
41	0x3c69182c	0.014226954
42	0x387d534f	6.0397488e-05
43	0xbac4e6ec	-0.0015022433
44	0x3bbeff7f	0.0058287974
45	0xb7f43d30	-2.911556e-05
46	0xbcb9f7bf	-0.022701142
47	0xbc5cc5ab	-0.013474862
48	0x80008957	-4.9268e-41
49	0xbc809e6a	-0.015700538
50	0xbbb95eac	-0.0056570377
51	0xbb63890e	-0.0034719142
52	0x39b0a907	0.0003369527
53	0x3c627e00	0.013823986
54	0x3c0322e2	0.008003922
55	0x3c9c2250	0.01905933
56	0x396e6d2f	0.00022738123
57	0xbceb2e04	-0.028708465
58	0x3ca9ab3a	0.02071153
59	0x0000896c	4.9298e-41
60	0xb724930c	-9.809399e-06
61	0xbc4858ff	-0.01222825
62	0xbba362e8	-0.004986156
63	0xbb3cfb45	-0.0028836292
64	0x3c5e1b02	0.013556244
65	0xbc1cc8d8	-0.009569369
66	0x3d6b2651	0.05740959
67	0xb5167b00	-5.6058343e-07
68	0x3cab0262	0.02087516
69	0x3d986bb0	0.07442415
70	0xbd17fe19	-0.03710756
71	0x3c0c4f28	0.008563794
72	0xbd331d5e	-0.04372918
73	0x3c701d2a	0.014655391
74	0xbcd2f4c4	-0.025751479
75	0xbcda5504	-0.026651867
76	0x000089ab	4.9386e-41
77	0x3db1ed6a	0.08687861
78	0xbbf078d5	-0.007338623
79	0xbd07f17f	-0.033189293
80	0xbc3623fb	-0.011116977
81	0x3bfa1cb0	0.0076328143
82	0x3c9c9f66	0.019118976
83	0xbc88f11a	-0.016716529
84	0xbd0ab9e9	-0.033868704
85	0xbc185dc2	-0.009299697
86	0xbc8c565b	-0.017131021
87	0x3a74f71c	0.00093446835
88	0xbcd24066	-0.025665473
89	0xb906a5e5	-0.00012841036
90	0xbb374371	-0.0027963782
91	0x8d26debc	-5.1420806e-31
92	0xbd5e65db	-0.054296356
93	0x3deb717d	0.114962555
94	0x3d8c8347	0.06860977
95	0xbc4bd3aa	-0.012440601
96	0x3bc776d5	0.006087164
97	0xbc7ec84a	-0.015550682
98	0x00008961	4.9282e-41
99	0x80008940	-4.9236e-41
100	0x3a75d8b6	0.0009378301
101	0xbbc79b6b	-0.0060915253
102	0xbb858745	-0.0040749633
103	0x3c27fa40	0.010252535
104	0x3c88e74e	0.016711857
105	0xbc174023	-0.0092316
106	0x38ef405a	0.000114083945
107	0xbc0e6c21	-0.008692772
108	0x3c2451ca	0.010029266
109	0xb85a7b96	-5.209035e-05
110	0x3c615d48	0.01375515
111	0x3c1b4775	0.009477486
112	0x00008950	4.9258e-41
113	0xbc9093a6	-0.01764853
114	0x3b515ad8	0.0031945016
115	0x3b6daa88	0.0036264975
116	0xbaee4c8e	-0.0018180774
117	0x3c7150c1	0.014728726
118	0xbbbe276b	-0.005803039
119	0x3ae6a909	0.0017597984
120	0x38ba6a02	8.888917e-05
121	0x3cdc2e6d	0.026877606
122	0x3b949cba	0.004535285
123	0x80008907	-4.9156e-41
124	0x3b0feeeb	0.0021962475
125	0x3c7686a4	0.015046749
126	0xb47ebdb6	-2.372461e-07
127	0xbba4d35f	-0.00503008
128	0xba3a9896	-0.0007118074
129	0x3c9842fc	0.018586628
130	0xbd09bb95	-0.033626158
131	0xb90e7816	-0.00013586911
132	0xbcfc084f	-0.03076568
133	0xbdbadd7a	-0.091242746
134	0xbc844f01	-0.016150953
135	0x3aab9142	0.0013089555
136	0x3c92ef54	0.017936386
137	0xbc78e234	-0.01519065
138	0x3cce162b	0.025157055
139	0x3c36ca9e	0.011156706
140	0x000088ed	4.912e-41
141	0x3c91855c	0.017763786
142	0x3c2669b2	0.010157036
143	0xbb008037	-0.0019607672
144	0x3bf1785f	0.0073690857
145	0xbc0e5e66	-0.0086894985
146	0x3c88cae5	0.01669831
147	0xbc255bb5	-0.010092665
148	0x3dbc8952	0.09205879
149	0x35d18326	1.5609883e-06
150	0x3c58b8ff	0.0132277
151	0xb9fb7dc0	-0.00047968142
152	0xbcc4821c	-0.023987822
153	0x3b02f90b	0.0019984867
154	0x3c5e6d0e	0.013575805
155	0x1986c7f4	1.3936036e-23
156	0x3d97a257	0.07404011
157	0x3ca65b14	0.020307101
158	0xbdf4bcd3	-0.11950078
159	0x3c6f1046	0.014591282
160	0x3be9dd3e	0.00713697
161	0xbc72abff	-0.014811515
162	0x80008910	-4.9169e-41
163	0x00008918	4.918e-41
164	0xbc7875d2	-0.015164809
165	0x3c60988e	0.013708247
166	0xbcfb93d2	-0.030710135
167	0x3b8b3a77	0.004248913
168	0xbba9db3a	-0.0051836045
169	0xbcc4abd6	-0.024007719
170	0x38e12cdc	0.00010737192
171	0x3cdf8773	0.027286267
172	0x3c1c857f	0.009553312
173	0x3a9bbc64	0.0011881706
174	0x3cbe0399	0.023195075
175	0xbc311318	-0.010807775
176	0x800089d4	-4.9443e-41
177	0x3c92a90a	0.01790287
178	0x3a36ca96	0.00069729367
179	0xbbb0e19d	-0.005397989
180	0x3b5c1dad	0.0033587024
181	0x3c080f28	0.008304395
182	0x3c08d299	0.008350992
183	0x3c19a503	0.009377721
184	0xb97a36e4	-0.00023862306
185	0x3c2a7e24	0.010406051
186	0x3c5c5573	0.013448107
187	0x8000890f	-4.9167e-41
188	0xb7a6aceb	-1.9869263e-05
189	0x3b793f11	0.0038031975
190	0xb9815d59	-0.00024674347
191	0x3bff5fd2	0.007793405
192	0xbb2a444e	-0.0025980654
193	0xbc2ee3b7	-0.010674409
194	0xbd137c5c	-0.03600727
195	0x3a7b0ba6	0.0009576626
196	0x3c9004d6	0.017580431
197	0xbcf3c2a4	-0.029755898
198	0x3bff625c	0.007793708
199	0xbc0dc5e7	-0.008653141
200	0xbc097578	-0.008389823
201	0x3b5f964a	0.003411668
202	0x3e049759	0.1294836
203	0xbc973d2e	-0.01846179
204	0x00008977	4.9313e-41
205	0xbc93df5b	-0.01805084
206	0xbcc420f6	-0.023941498
207	0xbc0ce7ed	-0.008600217
208	0x3bba797c	0.0056907516
209	0x3ca26003	0.019821173
210	0xbcfedb69	-0.031110482
211	0x3c5cc4a0	0.013474613
212	0xbb0b8742	-0.0021290337
213	0xbb8e45df	-0.0043418254
214	0xbc7b6d91	-0.015345947
215	0x3594b760	1.1080228e-06
216	0xbbf51e6a	-0.0074804323
217	0xbc02ec24	-0.007990871
218	0xbc6ae817	-0.014337561
219	0x00008912	4.9172e-41
220	0x3d3a6cf1	0.04551405
221	0xbcd1629e	-0.02555972
222	0x3cd030f8	0.025413975
223	0x3997bee1	0.0002894318
224	0x3cf863ea	0.03032108
225	0x3c91c51e	0.017794188
226	0x00008956	4.9267e-41
227	0x800088bf	-4.9055e-41
228	0x3b12f874	0.0022425922
229	0xbc03e7f9	-0.008050912
230	0xbb377d6f	-0.0027998348
231	0x3c3c3130	0.011486337
232	0x3c0c9614	0.008580703
233	0xbb944532	-0.0045248503
234	0x3a84023b	0.0010071466
235	0xbb94dfcd	-0.0045432807
236	0x3cff1e04	0.031142242
237	0xba03b4ea	-0.0005024212
238	0x3c37ad8b	0.011210809
239	0x3cb67aeb	0.022275409
240	0x000088ba	4.9048e-41
241	0x3be8fcda	0.0071102204
242	0x3b7ca130	0.0038548224
243	0xbca3024c	-0.019898556
244	0x3ab21628	0.0013586925
245	0xbc0d75ef	-0.008634075
246	0xbbe3d144	-0.0069524366
247	0x3d07914a	0.033097543
248	0xba49f7ce	-0.0007704467
249	0x3bc8ab84	0.006123962
250	0x3b1f4651	0.0024303386
251	0x00008959	4.9271e-41
252	0x3b5b817a	0.0033493922
253	0x3a4cb68f	0.0007809186
254	0xb80f953d	-3.4232846e-05
255	0xbab7ecd4	-0.0014032372

fc2.bias f4 [10]
0	0xbf9163a3	-1.1358532
1	0xbfada71f	-1.3566626
2	0x40097d81	2.1482852
3	0x3f440a85	0.7657855
4	0x3fa4b596	1.2867916
5	0x4004bc1d	2.0739815
6	0xbff1233a	-1.8838875
7	0x3f5a674b	0.8531386
8	0xbf32a7ef	-0.69787496
9	0xc0049e23	-2.072152
