checkpoints/final_model.pth (torch, 532464 bytes, 8 tensors)

conv1.weight f4 [8, 3, 5, 5]
000000 c6 83 b8 3d a3 eb 9d 3d f7 4d 70 be 44 6a e5 be
       0.09009509 0.0771096 -0.23467241 -0.44807637
000010 41 67 8e be 51 95 82 3e 62 9a a6 bb ac cd 97 bd
       -0.2781315 0.25504544 -0.005084322 -0.07412276
000020 02 ca cf bc 27 ad 28 be 8f eb e5 3c 9c 0d 34 3c
       -0.02536488 -0.16472302 0.028066425 0.010989573
000030 4d 35 2b 3d 93 84 53 3c ee c7 a8 bd e0 e6 5c 3e
       0.04179888 0.012910026 -0.082412586 0.21572447
000040 7a d1 3f 3e 4b 60 4b 3e 19 4e ca 3e c3 af 7d 3e
       0.18732253 0.19860952 0.3951271 0.24774079
000050 17 e9 96 be 61 9a ef bd 4a 75 d6 3d ec a0 14 3d
       -0.29474708 -0.11699367 0.1047159 0.03628628
000060 ad 71 92 3d c1 14 14 3d bc 92 46 3e 58 aa 2b bd
       0.07150588 0.036152605 0.19391912 -0.0419105
000070 be ad 92 be da 02 5b 3e 1b 2d 89 bd 7e bd 7b be
       -0.2864818 0.21387807 -0.06698056 -0.24584004
000080 ca 1d 99 be 51 eb 8e be 32 4e ec bc 4e 8a 8e 3d
       -0.2990554 -0.27913907 -0.02884588 0.06959973
000090 8e 09 cc 3d c7 47 42 bc 37 ab 34 3b f9 b7 75 3e
       0.0996276 -0.011857933 0.0027567872 0.23995961
0000a0 73 c0 cd 3d 1e 7c 1b be 4b 34 99 be 61 f8 8c 3c
       0.100464724 -0.15184066 -0.2992271 0.01720828
0000b0 f4 96 5c 3e b5 72 c0 b9 f2 fe d1 3d 73 24 08 3e
       0.21541959 -0.00036706557 0.10253705 0.13295154
0000c0 28 4c bb bd 5b 8a 80 3e e1 c4 0a bf ca 48 8d be
       -0.09145385 0.25105557 -0.54206663 -0.27594596
0000d0 b0 9a 4c 3e f1 13 be 3e 29 5c 9d 3f 07 91 35 bd
       0.19980884 0.3712459 1.229375 -0.044327762
0000e0 a9 16 20 bd 49 9f 5b 3e 5e 03 a3 3e e6 25 01 3f
       -0.03908411 0.21447481 0.31838506 0.50448453
0000f0 53 03 c2 be c3 48 72 be 30 71 c5 3d 3e 36 32 3c
       -0.3789316 -0.23660569 0.096407294 0.01087719
000100 50 63 44 3e 6a 14 b9 be 46 5f 33 be 2a ee 99 be
       0.1917851 -0.36148387 -0.17516813 -0.30064517
000110 6d d0 fd bd c3 34 5c be 7b 3f d5 be 43 79 28 be
       -0.1239327 -0.21504502 -0.41649994 -0.16452508
000120 b4 fe 50 3e 88 57 98 ba af 3e 2a 3e d8 24 8c bc
       0.20409662 -0.0011622766 0.16625474 -0.017107412
000130 5e 65 cb bd 76 2a 22 3f 9d f4 e8 3e 5e ce e6 bd
       -0.09931444 0.6334604 0.45499125 -0.1126983
000140 13 f0 93 3e 68 4d 51 3e 5f a4 8d 3f b7 6d 78 3f
       0.288941 0.20439684 1.1065787 0.9704241
000150 7c c6 06 3f 86 ab dc be 56 7b fa be bf fc 23 be
       0.52646613 -0.43099612 -0.48922223 -0.16014384
000160 08 f7 f5 bd 46 f2 a3 be d0 8f cc bd 3f b2 86 be
       -0.12010008 -0.32020777 -0.099883676 -0.26307866
000170 ba f1 0e be c9 93 91 3b 9a f9 ae bd 45 db 81 be
       -0.13959399 0.004442666 -0.085437015 -0.25362602
000180 06 fb 7d be b3 60 e8 be 80 21 67 be 63 4a 87 be
       -0.24802789 -0.45386276 -0.22571373 -0.2642394
000190 b9 27 a6 be ea fa 30 3e 6f d7 54 be 6c 0b 44 bf
       -0.3245218 0.17283216 -0.20785306 -0.7657993
0001a0 91 33 0f bf f8 bc 47 be 66 5e a6 3d 83 32 9a be
       -0.5593806 -0.1950568 0.08123474 -0.30116662
0001b0 2b 22 6b bf 27 56 1a bf 17 17 c2 3e ae d0 3b 3f
       -0.9184901 -0.6028771 0.3790824 0.73365295
0001c0 67 e7 0e 3f 2d 91 48 be 48 70 1c be 05 6d 88 3e
       0.5582184 -0.1958663 -0.15277207 0.26645675
0001d0 27 f1 1e 3f 93 e6 be 3e fb 03 96 bd 33 69 00 3d
       0.6208672 0.3728529 -0.07324978 0.031350326
0001e0 56 21 88 3e 98 0d e2 3e 57 e5 9a 3e c3 e6 e6 bd
       0.26587933 0.44150996 0.30253097 -0.11274483
0001f0 af dd fd bb bf 37 7c 3e 8d d0 a5 bc 82 14 1d bf
       -0.007747374 0.2463064 -0.020241046 -0.6135942
000200 cf 64 ba 3e 43 ac 1a 3f 14 ce 89 3c 44 2f d0 be
       0.36405036 0.604191 0.016821899 -0.4066106
000210 a6 c9 88 bf 2e da 12 be 28 c1 3b 3e ee a0 76 bd
       -1.0686538 -0.14341041 0.18335402 -0.06021207
000220 e2 cf 99 be b4 e2 dd be e5 7d b7 3e e2 b5 cb 3e
       -0.30041414 -0.43337023 0.35838237 0.39787203
000230 21 a8 85 be a9 74 c6 be 51 8b 71 be e8 ea 09 3e
       -0.26104835 -0.3876088 -0.23588301 0.13468516
000240 72 e9 1a 3e 6e ff 92 bc d8 01 43 bc a1 4d 11 3d
       0.15128115 -0.017944064 -0.011902295 0.035474423
000250 ca 79 b1 3e fb 19 e4 3d 00 55 a3 3e 5b b4 bd be
       0.3466323 0.11137768 0.31900787 -0.37051663
000260 4f 28 10 3f b5 b1 00 bf b8 8e 9f 3c 61 d2 d3 3d
       0.56311506 -0.5027116 0.019477233 0.10342861
000270 0e d9 6c be 78 18 8b be 80 b8 e5 3e 4b 1e 04 bf
       -0.23129675 -0.27167106 0.44867325 -0.51608723
000280 91 8e 12 3e b1 be 6a 3f 66 f0 9c bf 1a 2d 4d 3d
       0.14312197 0.9169722 -1.2260864 0.05009184
000290 b1 6a 49 3e 25 f2 af be 3a aa 17 3e b1 2b 4d 3f
       0.19669606 -0.3436443 0.1481103 0.8014479
0002a0 69 e0 b8 be 8c 3a ad be 19 c5 65 3e 98 73 e5 be
       -0.3610871 -0.3383373 0.22438468 -0.44814754
0002b0 00 d3 ca 3e 44 28 d5 3d 1d 8b 3b 3e 10 fd 0c be
       0.39614105 0.10408071 0.18314786 -0.1376841
0002c0 f6 d2 dd be 91 b7 28 3f 7b ad 2e be 09 f5 d3 3e
       -0.43325013 0.659051 -0.17058365 0.41397884
0002d0 4a a6 37 bd 5e 85 09 be a4 01 98 bd 92 9f 33 3f
       -0.04483632 -0.13429782 -0.07422188 0.7016536
0002e0 63 4d 15 3e 29 9a 5d be 5f 13 5d 3f 7d 76 86 bf
       0.14580302 -0.21640839 0.8635768 -1.050491
0002f0 d6 09 bb 3e 8a 90 16 3f 35 cb 11 bf 2d a5 fd 3c
       0.36530942 0.588143 -0.56950694 0.030962551
000300 a3 fd 48 3f d2 2d 22 be 09 fd 27 3d 30 5d fd bd
       0.7851202 -0.15837792 0.041012798 -0.1237129
000310 32 2c 48 bf 89 7a 11 be 67 29 8d be e9 dc da 3d
       -0.78192437 -0.142069 -0.2757065 0.106866665
000320 e0 4f 26 3e 7a 9e b5 be 32 a8 91 3e 17 bb ec be
       0.16241407 -0.3547247 0.28448635 -0.46236488
000330 04 0d c9 bc 56 3d 8e 3e 3e ff a8 bd 8c df b8 be
       -0.02454234 0.2778117 -0.082518086 -0.36108053
000340 53 f0 a7 3e 98 97 ca be eb 5c 0d 3c c8 ab 4a 3f
       0.3280054 -0.39568782 0.00862811 0.7916837
000350 e2 a8 a1 bf 84 6d f3 bc 18 36 a6 bd 48 b3 fc bd
       -1.2629664 -0.029715307 -0.08115786 -0.12338883
000360 ac cf 3c 3e 5a 4c 10 3f 8f 9e 8d be 2b 66 e8 be
       0.18438596 0.56366503 -0.27660033 -0.45390448
000370 1a 00 e0 3e 8e 4f a9 bd fa 9a b8 3e a5 19 00 3e
       0.43750077 -0.08267127 0.36055738 0.12509783
000380 b3 25 38 3d 90 b2 57 be 84 97 31 be 2e d9 20 3e
       0.044957828 -0.2106421 -0.17342955 0.15707847
000390 9a 15 75 3e e3 6f 56 3e 42 3d a3 be 47 dd 15 3e
       0.23934022 0.20941119 -0.31882674 0.14635192
0003a0 a1 9b 8c 3e f5 5a 5a bd 7b 9c a5 3c 86 0c 2b bd
       0.27462485 -0.0533094 0.020216217 -0.04175999
0003b0 40 a1 55 3f 25 84 e7 be 15 c6 45 be 85 30 10 be
       0.8344917 -0.45218006 -0.19313844 -0.14081009
0003c0 3e 7f 4f 3f ea 05 14 bf b2 57 11 bf 60 7f 4d 3e
       0.8105353 -0.57821524 -0.5677444 0.20068121
0003d0 2a a9 6b bc f2 d4 4a be ea 22 b8 be 33 21 00 3f
       -0.014383594 -0.19807795 -0.35964137 0.5005066
0003e0 ba e3 a4 bd bb b6 05 3d 5e fb c1 bc e2 d9 56 3d
       -0.08051248 0.03264497 -0.023679432 0.052453883
0003f0 7b 44 98 3d a5 76 11 be 61 85 9b be 26 48 62 be
       0.074349366 -0.14205416 -0.30375198 -0.22097835

conv1.bias f4 [8]
000000 76 d5 3b bf f1 8f f0 bf 89 5a e9 bd 8b e5 ae be
       -0.7337259 -1.8793927 -0.11394221 -0.34159502
000010 8c cb 81 bd 15 a2 85 3e 51 2f 48 bf 11 a8 75 bf
       -0.063376516 0.2610022 -0.781972 -0.95959574

fc1.weight f4 [64, 2048]
000000 6e 04 13 a3 99 e1 48 b3 5a 2e 3a b2 1c ac a6 a2
       -7.969824e-18 -4.677131e-08 -1.0837164e-08 -4.517662e-18
000010 81 92 71 a5 ef 3a 90 a4 16 23 58 a5 5f 2f af 24
       -2.0953055e-16 -6.254988e-17 -1.8746901e-16 7.59744e-17
000020 4c 63 aa a5 d3 92 9e a5 3f a1 9e 27 6b 9c 29 a5
       -2.9557585e-16 -2.7508123e-16 4.4028633e-15 -1.471141e-16
000030 01 df 45 a4 19 8a 00 80 4e 89 00 80 a8 13 4a b4
       -4.2906457e-17 -4.954e-41 -4.9256e-41 -1.8819867e-07
000040 82 80 9b b1 d2 cc 76 b6 45 13 75 b3 8a d6 67 04
       -4.5257034e-09 -3.6776078e-06 -5.7061033e-08 2.7252431e-36
000050 fe 89 00 80 3f 85 a8 11 f1 dc 19 0d 2a 90 01 00
       -4.9502e-41 2.6587846e-28 4.7412714e-31 1.43552e-40
000060 9d fa 56 8f 67 89 00 00 33 78 7f 12 52 03 de 1b
       -1.0599281e-29 4.929e-41 8.061197e-28 3.6728965e-22
000070 f4 cb 7e 1e 6f ba 35 93 28 35 00 80 cc f1 b4 b4
       1.34888246e-20 -2.293733e-27 -1.9069e-41 -3.3703543e-07
000080 f2 e2 a4 b4 35 89 0f b8 08 ab 6e b4 a6 4b 3d ad
       -3.0712505e-07 -3.422164e-05 -2.2227698e-07 -1.07602035e-11
000090 e6 42 45 92 61 e0 6d 1c 47 1f a3 1d e8 74 c0 97
       -6.22447e-28 7.8706725e-22 4.317808e-21 -1.243722e-24
0000a0 1f df 3e 90 eb bc 14 92 4a 8d 28 a4 b5 d4 51 22
       -3.764278e-29 -4.6933425e-28 -3.654887e-17 2.8437388e-18
0000b0 0f ab b3 21 60 c1 0a 98 b9 b6 4c 9d 1e 8f 50 b4
       1.2174791e-18 -1.7933711e-24 -2.709364e-21 -1.9423575e-07
0000c0 f8 24 b5 b5 5a 8c 8d b8 77 86 f4 b5 e4 09 b8 a0
       -1.349631e-06 -6.7495464e-05 -1.8218551e-06 -3.1177358e-19
0000d0 31 2e 63 25 cb a8 f6 18 9c 7f 32 12 e7 39 c0 9a
       1.9704762e-16 6.3759947e-24 5.6324187e-28 -7.9502885e-23
0000e0 f6 61 e7 a1 dd da 85 9e 88 67 a4 9c 01 fa da 1c
       -1.5679099e-18 -1.4172442e-20 -1.0879372e-21 1.4490654e-21
0000f0 fc 86 6b 27 61 59 be 8e 64 de b3 a3 5c 1e fb b3
       3.2685977e-15 -4.6924685e-30 -1.9501405e-17 -1.1693621e-07
000100 98 2a 21 b6 04 a6 58 b8 93 34 7e b5 81 44 16 b2
       -2.4015662e-06 -5.1653027e-05 -9.469888e-07 -8.746725e-09
000110 fb f7 e9 24 d7 73 45 17 cd 96 a3 10 9d 17 71 19
       1.0146774e-16 6.3800344e-25 6.452451e-29 1.2464177e-23
000120 0d c1 af a2 ca 4c 57 9f b3 7e b1 a4 c6 b1 24 a7
       -4.7638246e-18 -4.559154e-20 -7.697615e-17 -2.2855943e-15
000130 f3 4f 82 a8 62 b0 23 9d cb b2 00 1b bd 91 9b b3
       -1.4467572e-14 -2.1664058e-21 1.0645683e-22 -7.2442596e-08
000140 db e9 96 b5 e7 c8 7f b7 b4 db 5c b5 19 62 89 b2
       -1.1243932e-06 -1.5245961e-05 -8.2276097e-07 -1.5993509e-08
000150 f6 e0 11 26 e2 32 3b a5 b4 ec 92 21 07 ef a0 1b
       5.061186e-16 -1.6236904e-16 9.956e-19 2.6624247e-22
000160 27 2c 4b a0 7b 8d b5 9d a0 3b 26 a6 96 98 cf a9
       -1.7209378e-19 -4.805659e-21 -5.7673626e-16 -9.219116e-14
000170 ec da 1a aa 01 a7 fc a4 cb db ab 1f 98 50 bf b3
       -1.3753901e-13 -1.09570495e-16 7.2784934e-20 -8.9087905e-08
000180 a1 db bb b4 88 4d 4e b7 b4 19 b2 b5 37 66 9a b3
       -3.4991265e-07 -1.22966085e-05 -1.3269514e-06 -7.1897766e-08
000190 7c d4 5f 28 7d be c8 ae 72 2f 01 20 b4 0d b4 25
       1.2425062e-14 -9.1287845e-11 1.0942423e-19 3.1234308e-16
0001a0 f0 19 df 9e 2e 57 f3 a4 e6 7b b5 ab b6 05 54 a9
       -2.3621771e-20 -1.0553214e-16 -1.2895212e-12 -4.707841e-14
0001b0 0a 6b cc a8 a7 6a e1 22 c3 5f a3 22 b1 88 e4 b3
       -2.269497e-14 6.1099295e-18 4.428263e-18 -1.06419414e-07
0001c0 41 b8 79 b3 ed 7b 9d b7 52 d0 98 b5 ec 92 1d b3
       -5.8142408e-08 -1.8773566e-05 -1.1385512e-06 -3.6688036e-08
0001d0 de 0b 62 ac 93 f1 62 b1 e3 92 e8 21 80 47 d5 26
       -3.212312e-12 -3.3024647e-09 1.5759812e-18 1.4799224e-15
0001e0 07 a3 43 a7 2c d4 de a8 02 a4 21 a9 10 87 2b ab
       -2.7150064e-15 -2.4738966e-14 -3.5891435e-14 -6.093884e-13
0001f0 64 94 86 aa 70 9b c9 20 0a 64 00 a5 0d 2b 70 b3
       -2.3906148e-13 3.4153584e-19 -1.1136125e-16 -5.591851e-08
000200 32 61 1f b4 4f ca 02 b8 b6 74 60 b5 8d 5c be b1
       -1.4843388e-07 -3.118283e-05 -8.361634e-07 -5.5402496e-09
000210 b4 8f ae b2 b6 78 95 af 93 f6 35 a6 80 cf 95 a8
       -2.0321615e-08 -2.7188712e-10 -6.313116e-16 -1.6632312e-14
000220 0d cc 96 aa a1 03 61 b2 b8 50 e3 b1 93 da 37 aa
       -2.678694e-13 -1.3097549e-08 -6.615746e-09 -1.6329498e-13
000230 7c 90 7f ac fa d7 5b a8 c0 a3 b6 aa be 34 a1 b3
       -3.6317884e-12 -1.22037746e-14 -3.244332e-13 -7.5067405e-08
000240 a1 42 d2 b3 b7 95 72 b8 6f bc c0 b5 e7 73 38 b1
       -9.791007e-08 -5.783673e-05 -1.4359956e-06 -2.6841407e-09
000250 13 b1 5c b3 ff af 96 af c3 20 30 a0 b4 ab e4 a3
       -5.138379e-08 -2.7409894e-10 -1.491862e-19 -2.4792529e-17
000260 4d f9 e6 a6 fe e9 33 b0 3e 44 3c ae 21 92 4d a0
       -1.6027029e-15 -6.5452344e-10 -4.2806862e-11 -1.7412525e-19
000270 d6 59 db aa af 18 94 ac fd 42 23 aa 3f 26 8f b3
       -3.896455e-13 -4.2091534e-12 -1.450055e-13 -6.665913e-08
000280 bb bc ab b2 45 bc 84 b8 62 0f d2 b5 0b 95 a7 b0
       -1.9992845e-08 -6.3293184e-05 -1.5650696e-06 -1.219321e-09
000290 c0 dd ec b2 87 6c 11 b2 90 e6 30 13 9d f8 1c a0
       -2.7574856e-08 -8.464787e-09 2.2328e-27 -1.3295973e-19
0002a0 d5 65 51 b1 72 a1 32 af d3 2a 31 ae 76 a4 73 19
       -3.0471388e-09 -1.6246363e-10 -4.0283176e-11 1.2596018e-23
0002b0 11 b4 8e a4 8b 4e 61 ab 6e 17 83 a2 fb 58 ee b2
       -6.188773e-17 -8.004506e-13 -3.553243e-18 -2.774731e-08
0002c0 77 3f 85 af 23 11 eb b7 3d 3a 34 b5 4d 48 a5 a3
       -2.4237654e-10 -2.8022163e-05 -6.7139973e-07 -1.7919956e-17
0002d0 5f 1e 66 b3 76 5f b9 b2 15 8d b8 a1 c9 0a f8 a1
       -5.357867e-08 -2.1580245e-08 -1.2505669e-18 -1.6807988e-18
0002e0 f8 3f 74 22 2e 59 4c 21 6a 3e cd 1a d0 fd e9 18
       3.3102031e-18 6.9235917e-19 8.488685e-23 6.0485373e-24
0002f0 a2 84 42 a5 5d 9e 85 a8 f2 12 21 8f 66 14 2b b4
       -1.6871755e-16 -1.4834645e-14 -7.9415616e-30 -1.5933037e-07
000300 4e 55 74 af bb a3 9a b7 cf 44 c0 b4 35 69 a8 af
       -2.2221977e-10 -1.8434474e-05 -3.5812852e-07 -3.0633776e-10
000310 11 73 72 b2 ae 8f 80 b2 35 f6 42 a1 b3 41 48 a3
       -1.4112417e-08 -1.49665e-08 -6.605561e-19 -1.0855934e-17
000320 80 37 ae a2 74 41 23 14 f0 68 01 80 d7 f2 82 1b
       -4.7221557e-18 8.242305e-27 -1.2948e-40 2.1663627e-22
000330 48 47 3e 16 7b ab 65 9a fe 89 b1 01 c5 fa 8f b4
       1.537057e-25 -4.749461e-23 6.521754e-38 -2.6818284e-07
000340 41 11 8b ae bd 29 1e b7 ce 3f 89 b3 43 c4 65 a4
       -6.324053e-11 -9.427252e-06 -6.3911656e-08 -4.98227e-17
000350 d3 74 2d ab 4c 73 14 ad 86 01 94 23 98 68 ab 98
       -6.1624073e-13 -8.438427e-12 1.6046837e-17 -4.4308077e-24
000360 28 3e 8c a0 ef 39 05 94 ca 68 0f 18 37 d7 28 1c
       -2.3758054e-19 -6.7262094e-27 1.8535222e-24 5.5864696e-22
000370 f9 0c 91 90 9f 7d b0 1a aa 2a 95 14 19 ae 91 b4
       -5.7212403e-29 7.2994846e-23 1.5061983e-26 -2.7135027e-07
000380 4f 7a 16 af 62 ca f7 b6 c1 51 85 b2 d3 03 64 a1
       -1.3685873e-10 -7.384734e-06 -1.5520415e-08 -7.7254466e-19
000390 99 3f b8 a0 47 42 98 07 00 82 00 80 ad 89 00 80
       -3.1212898e-19 2.2909372e-34 -4.6635e-41 -4.9389e-41
0003a0 e1 fa f0 8f 9c 94 32 06 17 08 08 97 d6 f5 37 9e
       -2.3762462e-29 3.358726e-35 -4.395418e-25 -9.738777e-21
0003b0 9e a2 7f 81 91 da 9c 15 65 5f 1a 0b 23 1d 95 b4
       -4.6952775e-38 6.3352735e-26 2.9731088e-32 -2.7774612e-07
0003c0 17 30 70 ac 6e 1e 64 b4 a0 40 39 af 0d 9f 80 96
       -3.4132747e-12 -2.1245225e-07 -1.6848611e-10 -2.077989e-25
0003d0 3f f2 32 92 62 95 2c 8c bc 08 00 80 56 89 00 80
       -5.646549e-28 -1.3295351e-31 -3.133e-42 -4.9267e-41
0003e0 ad 6a 00 80 03 31 9e 91 e1 ca 46 9a d9 13 82 9f
       -3.8268e-41 -2.495821e-28 -4.1109325e-23 -5.5089977e-20
0003f0 77 ce 97 8d 3a 49 01 80 fb 19 02 00 1e 21 06 b4
       -9.355798e-31 -1.18104e-40 1.92991e-40 -1.249177e-07

fc1.bias f4 [64]
000000 7a c1 77 b1 ab 27 4b bb 31 f1 8d bb 9d 89 00 80
       -3.605321e-09 -0.0030998986 -0.004331731 -4.9366e-41
000010 83 d3 d4 a5 20 40 88 3f f7 96 00 80 88 59 cc 8f
       -3.6919464e-16 1.0644569 -5.4156e-41 -2.015044e-29
000020 3a 8f 82 a4 90 e0 5a b2 55 4e b0 3f b1 8e 41 ba
       -5.662115e-17 -1.274033e-08 1.3773905 -0.00073836284
000030 81 89 00 00 44 62 35 3d a0 c3 6d 86 16 e7 df be
       4.9327e-41 0.044283167 -4.4718468e-35 -0.43730992
000040 bc 83 3a bc da 88 00 80 75 fa a5 b9 fc a3 88 07
       -0.011383947 -4.9093e-41 -0.00031657857 2.0559387e-34
000050 d9 b1 dc 3f c3 38 00 80 07 b0 fd a8 6b 89 00 00
       1.7241775 -2.0362e-41 -2.8164982e-14 4.9296e-41
000060 a0 61 cf a7 e7 88 00 00 b8 8a 34 a5 9e c1 7f bc
       -5.7559887e-15 4.9111e-41 -1.5659511e-16 -0.015610127
000070 03 86 87 3e c5 0f 84 bf 22 63 cd 3d 86 a0 d9 b7
       0.2646943 -1.0317312 0.10028674 -2.5943165e-05
000080 b6 55 4b ba 76 e9 e1 ad af 89 00 80 1c 89 00 80
       -0.00077566074 -2.5683216e-11 -4.9392e-41 -4.9186e-41
000090 55 17 78 a8 96 2c a6 9a a8 88 11 81 9a 7e 47 a4
       -1.3771825e-14 -6.8728023e-23 -2.673034e-38 -4.3258482e-17
0000a0 40 89 00 00 9c f9 66 af f2 1b 77 bc ba 55 c8 a7
       4.9236e-41 -2.1007057e-10 -0.015082346 -5.5604096e-15
0000b0 1a 74 ab ba a5 89 00 00 5c aa 37 b4 ec 5c 12 b1
       -0.0013080866 4.9378e-41 -1.710518e-07 -2.1298616e-09
0000c0 f9 88 00 00 c2 36 41 13 15 8a 00 00 a3 ce 07 bc
       4.9137e-41 2.4387022e-27 4.9534e-41 -0.008289012
0000d0 44 5a 30 bc 01 7c 6c b2 d8 35 08 a5 83 5e e9 bb
       -0.0107637085 -1.3765203e-08 -1.1814363e-16 -0.0071218624
0000e0 55 dd 52 aa c5 3f c2 b2 ea d6 90 a4 83 89 00 00
       -1.8728537e-13 -2.2613571e-08 -6.2814124e-17 4.933e-41
0000f0 e2 89 00 00 66 84 97 b3 4f 89 00 80 e2 fe 86 b8
       4.9463e-41 -7.0555686e-08 -4.9257e-41 -6.4370935e-05

fc2.weight f4 [10, 64]
000000 c6 29 c5 3b 29 62 4a 3b 27 da 4a 3d 34 28 0d a3
       0.0060169427 0.0030881262 0.049524453 -7.652139e-18
000010 15 74 d0 bc ee c8 f6 3c f5 ab 00 3b 6e fc 6e 3b
       -0.025445977 0.030125108 0.0019633744 0.0036466378
000020 82 94 3f bb c1 45 63 bc 1b 9f b5 3b 15 d2 e6 b8
       -0.0029232805 -0.013871611 0.0055426485 -0.000110063855
000030 44 89 00 00 7d ed 2c 3d 6f 69 29 3c 72 1e d8 3c
       4.9242e-41 0.042218674 0.010340079 0.026381705
000040 f1 d8 22 3c 4c 45 55 3c b4 a6 d5 3b 33 7e 71 bc
       0.009939418 0.01301701 0.0065201167 -0.014739561
000050 03 2d 1a 3e 8a bf 01 3b 2a 4a 08 3c 04 db 55 bc
       0.15056233 0.0019798004 0.008318463 -0.013052706
000060 34 46 90 3a c0 ce 83 ae 28 b5 ab 3a 50 fb 44 3c
       0.001100725 -5.9939165e-11 0.0013100253 0.012022808
000070 15 dd d5 bc d6 fe 4b 3c 11 2a 2d 3d 6c 36 50 bc
       -0.026106397 0.012450894 0.042276446 -0.012708288
000080 50 58 1a 3c 4c 50 98 ba cc 89 00 80 58 89 00 80
       0.009420469 -0.001162061 -4.9432e-41 -4.927e-41
000090 a2 9c 68 bb 4f ce 18 bb 6d fa 0a 3c 0a b5 c8 38
       -0.003549375 -0.002331633 0.008482558 9.570464e-05
0000a0 92 78 be 3a cb 22 61 3c 65 37 bb 3b 48 5f ab ba
       0.0014531782 0.013741205 0.0057133907 -0.0013074661
0000b0 4e 7f cd 3b f6 57 31 b6 0b a8 87 bc c8 85 4f bc
       0.0062712794 -2.6426255e-06 -0.016559621 -0.012666173
0000c0 57 89 00 80 4f ea 2e bc 5f e3 0f bb f4 59 aa bb
       -4.9268e-41 -0.010675981 -0.0021955592 -0.0051987115
0000d0 07 52 b3 bb 0d 72 5c 3c 40 5d dd 3b 7a 82 9b 3c
       -0.005472425 0.013454926 0.006755501 0.018983115
0000e0 fb e1 b4 37 32 e1 d8 bc fa f7 91 3c 6c 89 00 00
       2.1562902e-05 -0.026474569 0.01781844 4.9298e-41
0000f0 df a0 ab b4 89 5a 28 bc bf 0e 0a bb a2 eb 85 ba
       -3.196828e-07 -0.0102754915 -0.0021065918 -0.0010217319
000100 1d 2a 42 3c c3 09 19 bc f0 6c a3 3d b3 6a 62 b0
       0.011850861 -0.009340706 0.079797626 -8.236995e-10
000110 ea a6 a3 3c 5d e2 95 3d 76 db e2 bc 14 62 cd 3b
       0.019977052 0.07318566 -0.027692538 0.0062677953
000120 26 1e 2a bd 84 dd 68 3c 62 cf e8 bc 42 4f d8 bc
       -0.041532658 0.01421297 -0.0284192 -0.02640498
000130 ab 89 00 00 76 c5 c8 3d 3f 91 bc bb 8c c5 f6 bc
       4.9386e-41 0.09803288 -0.0057546194 -0.030123495
000140 a0 c7 35 bc 36 7e a6 3b c3 aa 9a 3c 36 f2 58 bc
       -0.011094958 0.0050809635 0.018880254 -0.013241341
000150 c6 e2 05 bd fd 64 9d bb f5 d3 7b bc 36 cf 17 39
       -0.03268697 -0.0048032985 -0.015370359 0.00014477674
000160 3f a7 ab bc 2e 5d 1d b7 1e 2a 28 bb dc 55 43 bb
       -0.020953773 -9.379624e-06 -0.002565987 -0.0029805815
000170 2a 62 4d bd bb 10 e8 3d fa 66 93 3d 3c 82 49 bc
       -0.050142445 0.11331316 0.071973756 -0.012299117
000180 56 f9 c0 3b 90 eb ec bb 61 89 00 00 40 89 00 80
       0.005889098 -0.0072302297 4.9282e-41 -4.9236e-41
000190 0b d5 6b 3a 46 1a 49 bb c8 d8 13 bb ef ba 0b 3c
       0.00089962845 -0.0030685826 -0.0022559632 0.008528455
0001a0 df 5e 34 3c 69 94 13 bc 19 20 37 3c 1f 09 03 bc
       0.011008947 -0.009007552 0.011177086 -0.00799778
0001b0 b2 80 1f 3c c9 08 1f b6 72 4b 2a 3c b9 76 14 3c
       0.009735273 -2.369796e-06 0.010393964 0.009061509
0001c0 50 89 00 00 52 21 6f bc c8 33 04 3b bd bc 0d 3c
       4.9258e-41 -0.0145953465 0.0020172466 0.008650956
0001d0 bc cf 67 bb d8 f9 63 3c e1 79 ac bb 05 64 e5 3a
       -0.0035371622 0.013914548 -0.0052635525 0.0017501122
0001e0 01 7f 01 37 db 37 cb 3c 45 42 6f 3b 07 89 00 80
       7.71857e-06 0.024806907 0.0036508006 -4.9156e-41
0001f0 f1 04 53 3a cb d2 64 3c d0 cc b6 af a8 b3 2f bb
       0.00080497476 0.013966273 -3.3251135e-10 -0.0026809964
000200 9e 79 20 ba 2d 54 90 3c 83 39 95 bd 35 20 08 b7
       -0.0006121638 0.017618263 -0.0728636 -8.1137305e-06
000210 fb 7a ef bc 3a cf c6 bd b2 7d 52 bc 46 57 9d 39
       -0.029233446 -0.09707494 -0.012847351 0.00030010397
000220 60 87 85 3c 7a 4b 73 bc 5f 54 8a 3c 0f be 35 3c
       0.016299903 -0.014849538 0.016885934 0.011092677
000230 ed 88 00 00 52 05 35 3c 55 a8 d7 3b 22 75 72 bb
       4.912e-41 0.011048632 0.006581346 -0.0036996086
000240 ac be f0 3b 41 73 e9 bb c7 85 87 3c cf 23 fa bb
       0.0073469486 -0.007124335 0.016543282 -0.0076336632
000250 b3 4b c1 3d 0b c5 27 32 1e 7c 4c 3c f5 ad a5 b9
       0.094382666 9.765482e-09 0.012480764 -0.0003160086
000260 ee a0 a6 bc f0 17 28 3a 96 f9 3f 3c b7 93 e7 3b
       -0.02034041 0.00064122584 0.011717221 0.0070671695
000270 d6 08 95 3d 1d 6b d7 3c cf 42 ed bd a8 f0 6b 3c
       0.07277076 0.026296193 -0.11585008 0.014400639
000280 73 90 e4 3b 22 6a 2f bc 10 89 00 80 18 89 00 00
       0.0069752275 -0.010706456 -4.9169e-41 4.918e-41
000290 b4 bc 6b bc d2 2e 21 3c 47 cd a4 bc 64 4d 78 3b
       -0.014388252 0.009837823 -0.020117415 0.0037887925
0002a0 b5 cf 07 bb 58 71 bd bc 29 cb a3 3c 29 d1 d0 3c
       -0.0020723168 -0.023125336 0.019994335 0.02549036
0002b0 4b 49 34 3c d7 16 94 39 11 a1 a7 3c 96 90 22 bc
       0.0110038025 0.00028245777 0.020462545 -0.009922167
0002c0 d4 89 00 80 f3 a9 7a 3c 39 b5 56 39 e1 d5 b0 bb
       -4.9443e-41 0.015299308 0.00020476141 -0.00539659
0002d0 c3 82 0c bc 94 ee 03 3c d9 2a f3 3b c0 ae 18 3c
       -0.008576098 0.008052487 0.0074208793 0.009319007
0002e0 ba 78 80 b7 59 35 1c 3c 3f 73 cc 3b 0f 89 00 80
       -1.5315007e-05 0.009534203 0.0062393243 -4.9167e-41
0002f0 a7 5c 01 b5 75 6e 66 3b 56 b6 8e b8 94 08 87 3b
       -4.819107e-07 0.0035161052 -6.80505e-05 0.0041208956
000300 97 3c 17 bb e5 26 2c bc bf 7c 50 bd 2e 11 31 39
       -0.0023076886 -0.01050732 -0.050900217 0.00016886435
000310 08 82 8a 3c c9 63 fb bc 35 2e ad 3b 73 0e 91 bb
       0.016907707 -0.03068723 0.0052850493 -0.0044267713
000320 ab 95 f6 bb ac 4c 58 3b eb ac 06 3e 16 63 94 bc
       -0.007525166 0.0033004684 0.131519 -0.018113654
000330 77 89 00 00 bf da 0e bd 2d 5a 93 bc 95 e9 f9 bb
       4.9313e-41 -0.03487658 -0.017987335 -0.007626722
000340 ca 12 ba 3b 20 31 82 3c 5f 38 fc bc ac 5e 42 3c
       0.0056785094 0.015892565 -0.030788599 0.011863392
000350 a8 b6 a9 ba 0f 23 c6 ba ae 0c 65 bc de 68 37 34
       -0.0012948113 -0.001511665 -0.013980074 1.7081354e-07
000360 0c 89 b9 bb 3a 1d a6 bb 8c 30 41 bc 59 a4 c8 3b
       -0.005662089 -0.005069402 -0.01179136 0.0061231074
000370 46 d8 2e 3d f2 7e cc bc 8e b2 f8 3c f9 eb 95 39
       0.042686723 -0.024962876 0.030358579 0.00028595308
000380 20 f3 ec 3c 37 b1 06 3c 56 89 00 00 bf 88 00 80
       0.028924525 0.008220962 4.9267e-41 -4.9055e-41
000390 20 02 0c 3b a0 e2 98 bb a7 39 c8 ba 5f cc 25 3c
       0.0021363571 -0.0046656877 -0.0015275971 0.010119527
0003a0 cc 60 a4 3b b3 96 8d bb 2b a0 71 39 a3 82 8c bb
       0.005016422 -0.0043209433 0.00023043218 -0.004288034
0003b0 eb fd ec 3c 9f a3 e2 b8 34 3a 0d 3c 7d d8 ad 3c
       0.028929671 -0.000108069966 0.008619834 0.021221394
0003c0 ba 88 00 00 5a e7 db 3a e9 d1 15 3b d2 0c 63 bc
       4.9048e-41 0.0016777322 0.0022860712 -0.013858037
0003d0 5f 1e 93 bb db 88 05 bc 7f 34 d0 bb 94 b0 06 3d
       -0.0044897045 -0.008150305 -0.0063539143 0.03288324
0003e0 66 7f 03 b9 4a 9a b5 3b 37 fe 09 3b 59 89 00 00
       -0.00012540593 0.0055420743 0.0021056065 4.9271e-41
0003f0 14 59 d0 3a 44 c0 38 3a 48 9f c6 b5 49 ad 3c ba
       0.0015895688 0.0007047693 -1.4798507e-06 -0.00071974524

fc2.bias f4 [10]
000000 8e 44 92 bf 98 cf af bf 06 62 0a 40 53 73 42 3f
       -1.1427171 -1.3735228 2.1622329 0.7595722
000010 62 ed a3 3f 3d 31 05 40 11 76 f1 bf cf 5b 5a 3f
       1.2806818 2.0811303 -1.8864156 0.8529634
000020 58 50 30 bf 42 1b 04 c0
       -0.68872595 -2.0641637

linear.weight f4 [10, 64]
000000 c6 29 c5 3b 29 62 4a 3b 27 da 4a 3d 34 28 0d a3
       0.0060169427 0.0030881262 0.049524453 -7.652139e-18
000010 15 74 d0 bc ee c8 f6 3c f5 ab 00 3b 6e fc 6e 3b
       -0.025445977 0.030125108 0.0019633744 0.0036466378
000020 82 94 3f bb c1 45 63 bc 1b 9f b5 3b 15 d2 e6 b8
       -0.0029232805 -0.013871611 0.0055426485 -0.000110063855
000030 44 89 00 00 7d ed 2c 3d 6f 69 29 3c 72 1e d8 3c
       4.9242e-41 0.042218674 0.010340079 0.026381705
000040 f1 d8 22 3c 4c 45 55 3c b4 a6 d5 3b 33 7e 71 bc
       0.009939418 0.01301701 0.0065201167 -0.014739561
000050 03 2d 1a 3e 8a bf 01 3b 2a 4a 08 3c 04 db 55 bc
       0.15056233 0.0019798004 0.008318463 -0.013052706
000060 34 46 90 3a c0 ce 83 ae 28 b5 ab 3a 50 fb 44 3c
       0.001100725 -5.9939165e-11 0.0013100253 0.012022808
000070 15 dd d5 bc d6 fe 4b 3c 11 2a 2d 3d 6c 36 50 bc
       -0.026106397 0.012450894 0.042276446 -0.012708288
000080 50 58 1a 3c 4c 50 98 ba cc 89 00 80 58 89 00 80
       0.009420469 -0.001162061 -4.9432e-41 -4.927e-41
000090 a2 9c 68 bb 4f ce 18 bb 6d fa 0a 3c 0a b5 c8 38
       -0.003549375 -0.002331633 0.008482558 9.570464e-05
0000a0 92 78 be 3a cb 22 61 3c 65 37 bb 3b 48 5f ab ba
       0.0014531782 0.013741205 0.0057133907 -0.0013074661
0000b0 4e 7f cd 3b f6 57 31 b6 0b a8 87 bc c8 85 4f bc
       0.0062712794 -2.6426255e-06 -0.016559621 -0.012666173
0000c0 57 89 00 80 4f ea 2e bc 5f e3 0f bb f4 59 aa bb
       -4.9268e-41 -0.010675981 -0.0021955592 -0.0051987115
0000d0 07 52 b3 bb 0d 72 5c 3c 40 5d dd 3b 7a 82 9b 3c
       -0.005472425 0.013454926 0.006755501 0.018983115
0000e0 fb e1 b4 37 32 e1 d8 bc fa f7 91 3c 6c 89 00 00
       2.1562902e-05 -0.026474569 0.01781844 4.9298e-41
0000f0 df a0 ab b4 89 5a 28 bc bf 0e 0a bb a2 eb 85 ba
       -3.196828e-07 -0.0102754915 -0.0021065918 -0.0010217319
000100 1d 2a 42 3c c3 09 19 bc f0 6c a3 3d b3 6a 62 b0
       0.011850861 -0.009340706 0.079797626 -8.236995e-10
000110 ea a6 a3 3c 5d e2 95 3d 76 db e2 bc 14 62 cd 3b
       0.019977052 0.07318566 -0.027692538 0.0062677953
000120 26 1e 2a bd 84 dd 68 3c 62 cf e8 bc 42 4f d8 bc
       -0.041532658 0.01421297 -0.0284192 -0.02640498
000130 ab 89 00 00 76 c5 c8 3d 3f 91 bc bb 8c c5 f6 bc
       4.9386e-41 0.09803288 -0.0057546194 -0.030123495
000140 a0 c7 35 bc 36 7e a6 3b c3 aa 9a 3c 36 f2 58 bc
       -0.011094958 0.0050809635 0.018880254 -0.013241341
000150 c6 e2 05 bd fd 64 9d bb f5 d3 7b bc 36 cf 17 39
       -0.03268697 -0.0048032985 -0.015370359 0.00014477674
000160 3f a7 ab bc 2e 5d 1d b7 1e 2a 28 bb dc 55 43 bb
       -0.020953773 -9.379624e-06 -0.002565987 -0.0029805815
000170 2a 62 4d bd bb 10 e8 3d fa 66 93 3d 3c 82 49 bc
       -0.050142445 0.11331316 0.071973756 -0.012299117
000180 56 f9 c0 3b 90 eb ec bb 61 89 00 00 40 89 00 80
       0.005889098 -0.0072302297 4.9282e-41 -4.9236e-41
000190 0b d5 6b 3a 46 1a 49 bb c8 d8 13 bb ef ba 0b 3c
       0.00089962845 -0.0030685826 -0.0022559632 0.008528455
0001a0 df 5e 34 3c 69 94 13 bc 19 20 37 3c 1f 09 03 bc
       0.011008947 -0.009007552 0.011177086 -0.00799778
0001b0 b2 80 1f 3c c9 08 1f b6 72 4b 2a 3c b9 76 14 3c
       0.009735273 -2.369796e-06 0.010393964 0.009061509
0001c0 50 89 00 00 52 21 6f bc c8 33 04 3b bd bc 0d 3c
       4.9258e-41 -0.0145953465 0.0020172466 0.008650956
0001d0 bc cf 67 bb d8 f9 63 3c e1 79 ac bb 05 64 e5 3a
       -0.0035371622 0.013914548 -0.0052635525 0.0017501122
0001e0 01 7f 01 37 db 37 cb 3c 45 42 6f 3b 07 89 00 80
       7.71857e-06 0.024806907 0.0036508006 -4.9156e-41
0001f0 f1 04 53 3a cb d2 64 3c d0 cc b6 af a8 b3 2f bb
       0.00080497476 0.013966273 -3.3251135e-10 -0.0026809964
000200 9e 79 20 ba 2d 54 90 3c 83 39 95 bd 35 20 08 b7
       -0.0006121638 0.017618263 -0.0728636 -8.1137305e-06
000210 fb 7a ef bc 3a cf c6 bd b2 7d 52 bc 46 57 9d 39
       -0.029233446 -0.09707494 -0.012847351 0.00030010397
000220 60 87 85 3c 7a 4b 73 bc 5f 54 8a 3c 0f be 35 3c
       0.016299903 -0.014849538 0.016885934 0.011092677
000230 ed 88 00 00 52 05 35 3c 55 a8 d7 3b 22 75 72 bb
       4.912e-41 0.011048632 0.006581346 -0.0036996086
000240 ac be f0 3b 41 73 e9 bb c7 85 87 3c cf 23 fa bb
       0.0073469486 -0.007124335 0.016543282 -0.0076336632
000250 b3 4b c1 3d 0b c5 27 32 1e 7c 4c 3c f5 ad a5 b9
       0.094382666 9.765482e-09 0.012480764 -0.0003160086
000260 ee a0 a6 bc f0 17 28 3a 96 f9 3f 3c b7 93 e7 3b
       -0.02034041 0.00064122584 0.011717221 0.0070671695
000270 d6 08 95 3d 1d 6b d7 3c cf 42 ed bd a8 f0 6b 3c
       0.07277076 0.026296193 -0.11585008 0.014400639
000280 73 90 e4 3b 22 6a 2f bc 10 89 00 80 18 89 00 00
       0.0069752275 -0.010706456 -4.9169e-41 4.918e-41
000290 b4 bc 6b bc d2 2e 21 3c 47 cd a4 bc 64 4d 78 3b
       -0.014388252 0.009837823 -0.020117415 0.0037887925
0002a0 b5 cf 07 bb 58 71 bd bc 29 cb a3 3c 29 d1 d0 3c
       -0.0020723168 -0.023125336 0.019994335 0.02549036
0002b0 4b 49 34 3c d7 16 94 39 11 a1 a7 3c 96 90 22 bc
       0.0110038025 0.00028245777 0.020462545 -0.009922167
0002c0 d4 89 00 80 f3 a9 7a 3c 39 b5 56 39 e1 d5 b0 bb
       -4.9443e-41 0.015299308 0.00020476141 -0.00539659
0002d0 c3 82 0c bc 94 ee 03 3c d9 2a f3 3b c0 ae 18 3c
       -0.008576098 0.008052487 0.0074208793 0.009319007
0002e0 ba 78 80 b7 59 35 1c 3c 3f 73 cc 3b 0f 89 00 80
       -1.5315007e-05 0.009534203 0.0062393243 -4.9167e-41
0002f0 a7 5c 01 b5 75 6e 66 3b 56 b6 8e b8 94 08 87 3b
       -4.819107e-07 0.0035161052 -6.80505e-05 0.0041208956
000300 97 3c 17 bb e5 26 2c bc bf 7c 50 bd 2e 11 31 39
       -0.0023076886 -0.01050732 -0.050900217 0.00016886435
000310 08 82 8a 3c c9 63 fb bc 35 2e ad 3b 73 0e 91 bb
       0.016907707 -0.03068723 0.0052850493 -0.0044267713
000320 ab 95 f6 bb ac 4c 58 3b eb ac 06 3e 16 63 94 bc
       -0.007525166 0.0033004684 0.131519 -0.018113654
000330 77 89 00 00 bf da 0e bd 2d 5a 93 bc 95 e9 f9 bb
       4.9313e-41 -0.03487658 -0.017987335 -0.007626722
000340 ca 12 ba 3b 20 31 82 3c 5f 38 fc bc ac 5e 42 3c
       0.0056785094 0.015892565 -0.030788599 0.011863392
000350 a8 b6 a9 ba 0f 23 c6 ba ae 0c 65 bc de 68 37 34
       -0.0012948113 -0.001511665 -0.013980074 1.7081354e-07
000360 0c 89 b9 bb 3a 1d a6 bb 8c 30 41 bc 59 a4 c8 3b
       -0.005662089 -0.005069402 -0.01179136 0.0061231074
000370 46 d8 2e 3d f2 7e cc bc 8e b2 f8 3c f9 eb 95 39
       0.042686723 -0.024962876 0.030358579 0.00028595308
000380 20 f3 ec 3c 37 b1 06 3c 56 89 00 00 bf 88 00 80
       0.028924525 0.008220962 4.9267e-41 -4.9055e-41
000390 20 02 0c 3b a0 e2 98 bb a7 39 c8 ba 5f cc 25 3c
       0.0021363571 -0.0046656877 -0.0015275971 0.010119527
0003a0 cc 60 a4 3b b3 96 8d bb 2b a0 71 39 a3 82 8c bb
       0.005016422 -0.0043209433 0.00023043218 -0.004288034
0003b0 eb fd ec 3c 9f a3 e2 b8 34 3a 0d 3c 7d d8 ad 3c
       0.028929671 -0.000108069966 0.008619834 0.021221394
0003c0 ba 88 00 00 5a e7 db 3a e9 d1 15 3b d2 0c 63 bc
       4.9048e-41 0.0016777322 0.0022860712 -0.013858037
0003d0 5f 1e 93 bb db 88 05 bc 7f 34 d0 bb 94 b0 06 3d
       -0.0044897045 -0.008150305 -0.0063539143 0.03288324
0003e0 66 7f 03 b9 4a 9a b5 3b 37 fe 09 3b 59 89 00 00
       -0.00012540593 0.0055420743 0.0021056065 4.9271e-41
0003f0 14 59 d0 3a 44 c0 38 3a 48 9f c6 b5 49 ad 3c ba
       0.0015895688 0.0007047693 -1.4798507e-06 -0.00071974524

linear.bias f4 [10]
000000 8e 44 92 bf 98 cf af bf 06 62 0a 40 53 73 42 3f
       -1.1427171 -1.3735228 2.1622329 0.7595722
000010 62 ed a3 3f 3d 31 05 40 11 76 f1 bf cf 5b 5a 3f
       1.2806818 2.0811303 -1.8864156 0.8529634
000020 58 50 30 bf 42 1b 04 c0
       -0.68872595 -2.0641637
